mnist_model.pth (torch, 409136 bytes, 4 tensors)

fc1.weight f4 [128, 784]
000000 b2 e8 af 3c 56 87 af 3c dc 74 b5 bb 5c 47 49 3c
       0.021473262 0.021426838 -0.0055376124 0.01228508
000010 ca bd 19 bc 92 a0 4d bc fc 35 a6 bc 45 14 9c bc
       -0.009383628 -0.01255049 -0.020289414 -0.019052634
000020 24 64 ff bb 04 88 0c bd f5 e6 99 bc 50 2c 47 3b
       -0.00779392 -0.034309402 -0.018786887 0.0030391403
000030 38 57 d7 3d 02 6c fa 3d a7 c6 9c bd 0c 92 09 bd
       0.105146825 0.12227632 -0.076550774 -0.033586547
000040 fc 83 fe bc 88 86 e1 bc 9c 05 cc bc 32 52 b5 3c
       -0.031068794 -0.02752997 -0.024905019 0.02213392
000050 ae de d8 bc a0 bf d2 3a a6 dd dc 3c 48 f9 00 bd
       -0.02647337 0.0016078837 0.026961159 -0.031487733
000060 2c 13 04 bd 56 82 f4 3c e0 6c e8 3b a8 dd c2 3c
       -0.032244846 0.029847305 0.007093057 0.023787335
000070 98 81 41 bc e0 5d 5a bb 5a 42 99 3c a6 43 2d bc
       -0.011810683 -0.0033320114 0.018708397 -0.010575211
000080 79 5c a5 3d 17 5a 5d 3d 4f d4 32 3e 4c f6 75 3e
       0.080742784 0.054040994 0.17463802 0.24019736
000090 96 d2 88 3e 61 e0 75 3e c3 75 36 3e 93 f6 13 3d
       0.26723164 0.24011375 0.1781836 0.036123823
0000a0 32 a6 09 3e 68 db 48 3e 80 c9 e4 bd 51 83 07 bd
       0.13442305 0.19614947 -0.111712456 -0.033084217
0000b0 7e 33 10 ba 82 b9 6b 3c 3c be 13 3e 3d dd 9e 3e
       -0.0005500837 0.01438749 0.14428037 0.31028166
0000c0 98 ea 19 3e 25 31 c3 3d 6b f2 a1 3d 40 24 40 3d
       0.15030897 0.09530858 0.07907566 0.04690957
0000d0 50 67 1e bb c6 3e ca 3c 1a e6 b7 3c ea 25 74 bc
       -0.0024170466 0.024688136 0.022448588 -0.014901618
0000e0 45 9a d3 bc a0 19 ae bc 02 34 d0 3c b1 a0 a1 3e
       -0.025830397 -0.021252453 0.025415424 0.3156791
0000f0 e8 9c c5 3e 42 8b f1 3d ab f1 8c 3d a3 52 5d 3e
       0.38596272 0.117941394 0.06882032 0.21613555
000100 4d ac 06 3e 27 b1 84 bd 5c ef 85 bd 46 15 22 3d
       0.13151665 -0.06479102 -0.06539795 0.03957107
000110 8c 97 6d bc f8 46 af be 43 6a 52 be fa ab 84 bd
       -0.014501464 -0.34233832 -0.20548348 -0.064781144
000120 12 87 97 38 51 d7 87 3d 51 87 1c bd 58 48 13 be
       7.2254e-05 0.06632865 -0.038214985 -0.14383066
000130 18 7f 50 bd 9b 7a 0d 3e 56 0f 44 3d 1f f8 44 3c
       -0.050902456 0.13816302 0.047866188 0.012022047
000140 c0 2b d4 bc cb b2 4e bd 4a 41 c4 bc c8 41 ea bc
       -0.025899768 -0.05046348 -0.023956914 -0.02859582
000150 20 a3 33 3c eb 03 05 3d d0 0d 47 bd 3f 4b b3 3e
       0.010964185 0.03247444 -0.048597157 0.35018346
000160 c2 d9 f5 3e 51 3d 13 3e 08 36 9c 3d b1 73 07 3e
       0.480177 0.14378859 0.07627493 0.13227727
000170 3e dd c7 3e d5 0b 6b bd 3e 14 86 3d 9d 0a 42 3e
       0.39035982 -0.05738433 0.0654683 0.18949361
000180 02 3b ac 3d 85 09 a0 3c 13 0e 6d bd 45 1b 29 be
       0.08409692 0.01953579 -0.05787475 -0.16514309
000190 e1 79 c6 3c 77 9b 0b 3e f4 d2 0e 3e 47 48 ec 3d
       0.024228038 0.13633524 0.1394766 0.11537223
0001a0 56 90 b1 3e ef 90 b9 3e 24 9f 26 3e 0b 1a 5c 3e
       0.34680432 0.36243388 0.16271645 0.2149431
0001b0 e6 b4 f3 3d 10 fa 90 3d 05 2f ac 39 4f fd 02 3d
       0.11899738 0.07078946 0.0003284143 0.031979855
0001c0 5c a6 14 3c f2 08 54 3d 6a 62 02 3d e7 f2 5f 3e
       0.009072866 0.051766343 0.031832136 0.21870004
0001d0 cc 65 a7 3e fd 72 0c bb 9a 08 a6 bd 73 1e ed bc
       0.32694852 -0.0021430843 -0.08107109 -0.028945183
0001e0 5d ed 61 3c 0f cc 9f 3d 32 b0 86 3d 88 23 4e bc
       0.013789502 0.07802593 0.06576575 -0.0125817135
0001f0 8e ec 3a 3d 2c 2a 07 be 69 e4 9f bd ba ae 9e bd
       0.045635752 -0.13199681 -0.07807238 -0.0774817
000200 a8 35 30 bc 2c 71 b5 3d 97 06 fe bd e0 23 42 be
       -0.01075498 0.088594764 -0.12403601 -0.18958998
000210 d2 88 b5 bd 6c 2e 2d 3e 2f 78 42 3e b6 81 39 3e
       -0.08863987 0.1691224 0.18991159 0.18115887
000220 92 e8 29 3e b8 51 df 3c 72 3c 00 3e 04 a1 21 3e
       0.16592625 0.027260646 0.12523058 0.15784079
000230 3e 7b 90 bc f0 b2 7f 3b ef b0 c3 3c 43 d9 25 bd
       -0.017636891 0.0039016567 0.02388808 -0.0404904
000240 48 fe 35 bd 1d 1a 95 bd db 36 fe bc 17 44 2d 3e
       -0.044431955 -0.07280371 -0.031032017 0.16920505
000250 2a 95 8a 3e d8 5b 88 3e 07 f9 c3 3d fa 22 8f 3e
       0.27066928 0.2663257 0.095689826 0.27956372
000260 f6 33 36 3e d7 4a 28 3e d5 36 05 3e e3 c3 07 bd
       0.17793259 0.16434799 0.13009198 -0.033145797
000270 ff 92 01 3d 02 5a 19 3e 8c 32 77 bc b7 35 7e bd
       0.031634327 0.14975742 -0.015087735 -0.062062945
000280 20 b0 0b be 34 d2 9c be dc b1 98 be e6 30 0f be
       -0.13641405 -0.30629122 -0.29823196 -0.13983497
000290 5e f6 d0 3d d1 c1 ce 3d ac e8 90 bb 57 9d 23 3c
       0.10203241 0.10095561 -0.004422268 0.009986243
0002a0 80 12 fe 39 05 a2 a4 bd 2c 88 86 3e 88 93 1a 3b
       0.0004846044 -0.08038715 0.26275766 0.002358647
0002b0 28 b7 8d 3d 44 d8 36 3d 6b 73 b2 bd 23 b9 2e 3d
       0.069197 0.04463984 -0.087134205 0.04265703
0002c0 d3 62 25 3e 68 2e 7d 3e 5b de 1f 3e 86 61 85 3e
       0.1615098 0.24724734 0.15612166 0.26050967
0002d0 53 5f 86 3e f7 a2 03 3e 48 6f 55 3c e7 3e 50 3e
       0.26244602 0.12855135 0.01302702 0.20336495
0002e0 34 e6 42 3e 7d 7c 29 3e 26 ab ad 3d 33 fd 06 3e
       0.19033128 0.16551395 0.084799096 0.13182525
0002f0 00 1d c2 3c 0e c6 1e bd 95 ea 93 bd 4e de b2 bd
       0.023695469 -0.0387631 -0.07222477 -0.087338075
000300 e6 dd 57 3d 12 5a a0 3e f3 f7 4b be 9f a4 c7 3d
       0.052701853 0.31318718 -0.19918804 0.09748196
000310 30 7f c8 3b e4 d7 04 be 8d 8e 61 3e 96 e2 ac 3d
       0.0061186776 -0.1297298 0.22027035 0.08441655
000320 d7 97 12 be 60 33 31 be 01 ca 0a be 02 87 3a be
       -0.14315735 -0.17304754 -0.13553621 -0.18215564
000330 e9 b7 b4 3b 16 7c 84 3c 24 06 88 3d 66 91 11 3e
       0.005515088 0.01617245 0.06641796 0.14215621
000340 3f 61 0b 3e 9e f0 32 3d 4d 34 f7 bd 31 90 6d 3e
       0.13611315 0.0436865 -0.120705225 0.23199536
000350 61 4b 45 3d d7 6e d2 3d cf f2 13 3e 5b b4 dd 3d
       0.04816759 0.10275047 0.14448093 0.10825416
000360 ad 85 24 3d 61 b9 f4 bd ea 6b 20 be 76 d0 da bd
       0.040166546 -0.11949421 -0.15666166 -0.10684292
000370 21 46 2e 3e 04 6e 16 3e 72 5a 94 be c2 c2 0c 3e
       0.1701894 0.14690405 -0.28975254 0.13746169
000380 69 b6 91 bc 04 ff 2e 3c ae e9 b2 3d 0b b4 2d 3e
       -0.017787175 0.010680918 0.08735977 0.16963212
000390 d5 62 ea bd 74 fe 88 be 3f 74 3f be 12 4c 1e be
       -0.11444632 -0.26756632 -0.18696688 -0.15458706
0003a0 a7 73 05 3e 27 51 28 bd ec 87 fc bb cf 27 26 3e
       0.13032399 -0.041093018 -0.007706633 0.16226123
0003b0 18 92 e1 3d fc a5 5b bd 6f b2 b1 bd 79 e8 77 3d
       0.11014193 -0.053625092 -0.08676612 0.060524438
0003c0 83 2b 40 bc 5e 5c 38 bd 52 8b 0f 3e 12 a0 49 3d
       -0.011729124 -0.045009963 0.1401799 0.04922492
0003d0 2b 38 8a 3c 05 25 8b 3b ff e7 9b bd 1b 7e 93 be
       0.016872486 0.0042463564 -0.07612609 -0.28807148
0003e0 e7 9a b9 3d b9 27 40 3e b3 37 0b 3c b2 a4 18 3e
       0.090627484 0.18765153 0.008497166 0.14906576
0003f0 24 df 1b 3e 8b 15 e2 3d a5 0c 5d 3d ea dc 11 3e
       0.1522184 0.11039265 0.053967137 0.14244428

fc1.bias f4 [128]
000000 6e 4a e1 3a 09 17 3c 3e 58 ef 73 bc 8a 7a 34 3e
       0.001718832 0.18368162 -0.014888607 0.1762487
000010 a6 fd 50 bd 09 46 18 3c 72 30 3f bd 22 b6 9c 3d
       -0.051023148 0.009294041 -0.04667706 0.076519266
000020 6f 9e 2d 3e 6e 40 18 be a7 3a 4b 3c 17 43 66 bd
       0.16954969 -0.14868328 0.0124041205 -0.056216326
000030 2c b3 2b be 7c 6e 8d bc d2 13 50 bd fc a0 4e bd
       -0.16767567 -0.017264597 -0.050800152 -0.050446495
000040 5c 38 f3 3d 30 6d ad bd 06 ff 68 3c 9a 8c 46 bc
       0.11875984 -0.084680915 0.014220959 -0.012118483
000050 22 aa 49 3d 9b 6c 27 3d 00 b1 87 3e 0f 8c 67 3d
       0.049234517 0.04087506 0.26502228 0.056530055
000060 c0 6e ec bc 97 eb 83 3d 80 7d b1 3e d8 ff 38 3d
       -0.028861403 0.064414196 0.3466606 0.045165867
000070 8c 67 cf bc 43 db 86 3e d7 29 8e bc 64 41 4f 3d
       -0.02531793 0.26339158 -0.017353935 0.05059947
000080 0f 8b 0b 3e 1c 41 23 be 41 55 19 3e 4b 11 66 bd
       0.13627265 -0.15942806 0.14973928 -0.056168836
000090 fb 2f 3a 3d 40 df 30 3e ea 14 ce bd 06 0c 97 3d
       0.045455914 0.17272663 -0.10062583 0.0737534
0000a0 b0 a1 77 3d b9 92 4d bd 37 49 e1 3c 8c 41 63 3e
       0.06045693 -0.050188754 0.027500732 0.22192973
0000b0 f1 9f 9a 3c fb 80 97 3d 75 43 a4 bd 51 58 07 be
       0.018875094 0.07397648 -0.08020679 -0.13217284
0000c0 33 38 8e bc 5a 8a a9 bb 16 65 af 3e 77 bd 17 be
       -0.017360782 -0.0051739635 0.3425681 -0.14818369
0000d0 76 dd c4 bd 59 72 45 3e e2 2c bf 3c d3 7d 9b 3d
       -0.09612553 0.19281901 0.023336831 0.075923584
0000e0 1f 3f 2c be 7d e4 bf 3d bb b4 5b 3c 83 6c 95 3d
       -0.16820954 0.093697526 0.013409789 0.072960876
0000f0 83 53 a3 bd cc 01 80 3e 0c 21 24 3e e9 fc 65 3e
       -0.07974913 0.2500137 0.16028231 0.22459759
000100 da fb b0 bd fe 4c d5 bc 0e 3d 1f 3e 6c f2 5c 3e
       -0.08641787 -0.02603769 0.15550634 0.21576852
000110 b8 01 63 3e cc c6 2d bd 99 ec 2f 3b 3c f3 84 3e
       0.22168624 -0.042425916 0.0026843904 0.25966823
000120 45 f1 91 3d 18 b7 60 3d 98 37 aa bc 68 b9 12 3e
       0.07126097 0.05486211 -0.020778462 0.1432854
000130 fb 7f ab bd 14 8c aa 3d 00 5e 1d be c7 f3 08 3e
       -0.0837402 0.08327499 -0.1536789 0.13374244
000140 10 2e 93 3d fb 51 c6 3d ad 49 0f be ce 6b fa bd
       0.0718652 0.09683605 -0.13992949 -0.12227593
000150 58 8a c2 bd 0d 25 e1 3d df 63 40 be 2d c4 29 3d
       -0.09499043 0.10993395 -0.18788098 0.041446853
000160 a8 35 9d 3c 34 01 da 3b 3b 1b 9b 3d e5 89 0b bd
       0.019190624 0.0066529755 0.07573553 -0.034067053
000170 9e 44 0b 3e e7 db f3 3d 54 86 34 be 58 a1 54 bc
       0.13600394 0.119071774 -0.17629367 -0.0129779205
000180 b1 e5 93 3d 4d 56 10 3e 71 d4 cf bb 0a 64 06 3e
       0.072215445 0.14095421 -0.0063424637 0.131241
000190 a1 45 00 bd 94 79 ac bc e4 9d 2b be 28 31 53 3d
       -0.031316403 -0.021054067 -0.16759449 0.05156055
0001a0 17 c4 15 bd 3f 87 21 be a2 b2 13 be 13 0f 3b bd
       -0.03656396 -0.15774249 -0.14423612 -0.045668673
0001b0 29 c9 a4 bd 54 cf f6 3d 4c 23 f7 3d 86 30 1d be
       -0.08046181 0.120512635 0.12067279 -0.15350541
0001c0 bc 19 ec b9 8c d0 f3 3c 4b 09 03 bd d0 48 be 3c
       -0.000450326 0.029762529 -0.031991284 0.02322808
0001d0 08 5a 0b bb db 7f ad bd 32 22 1e bb aa 6b 7e 3e
       -0.002126338 -0.08471652 -0.0024129269 0.24845758
0001e0 7c fd 5b 3e cb 42 bf bd 86 06 fd b7 61 5a 29 3d
       0.21483415 -0.093389116 -3.0162988e-05 0.041345958
0001f0 42 01 e8 3d a3 70 94 bc 35 30 62 bb 4b 65 a2 bc
       0.11328365 -0.018120116 -0.0034513597 -0.01982369

fc2.weight f4 [10, 128]
000000 5c 5a 23 3e 04 a4 a1 3e ec fe fc 3d ef 16 a6 bd
       0.15952438 0.31570446 0.1235331 -0.08109843
000010 4c 08 5c 3d d2 01 ae 3d df bd 3f 3e 83 5f b3 3d
       0.05371885 0.08496441 0.18724774 0.08758452
000020 5f 85 a3 be e2 c3 73 be 4c 89 f4 be cc e6 fe 3d
       -0.31937692 -0.23805192 -0.47761 0.12446365
000030 b8 5d 8b be 69 85 bb 3c 99 d8 3b 3e ab a9 b0 be
       -0.2721994 0.022890763 0.18344344 -0.34504446
000040 14 69 20 be 69 bd be be a7 e6 89 3e f7 db d2 be
       -0.15665084 -0.37253883 0.26933786 -0.41183445
000050 29 e3 98 bd 0f 29 09 3e d1 bd 92 3e 45 c0 e4 3d
       -0.07465202 0.13394569 0.28660443 0.11169485
000060 2d 78 52 3d 2b 10 22 3e e5 79 c1 be 5d e9 38 3e
       0.05138414 0.1582648 -0.3778831 0.18057771
000070 6c 45 f2 bd 2a 4a 54 be 89 d1 3d 3e 41 92 32 3e
       -0.118296474 -0.20731416 0.18536963 0.17438604
000080 d9 31 0e bf 80 8a 82 3d f4 fb 72 be 86 44 cc be
       -0.5554481 0.06374073 -0.23728925 -0.3989603
000090 3d d0 19 bf ce 45 ae be 03 2a 2f 3e 7a b1 92 be
       -0.6008337 -0.34037632 0.1710587 -0.2865103
0000a0 3c 24 09 bd e4 97 5d 3e fd 78 9e be 65 ce b6 be
       -0.03348182 0.21639973 -0.30951682 -0.35704342
0000b0 68 d0 7e bd 7e ce c3 3d c9 54 ab 3d f3 23 84 bc
       -0.06221047 0.0956087 0.08365781 -0.016130423
0000c0 ea d9 39 3c 40 73 33 be ea b4 96 3e 20 0d 9e 3e
       0.011343459 -0.17524433 0.294349 0.3086939
0000d0 db f1 e4 3d 0a 1f cb be ed 8f 13 bf af da 39 be
       0.11178943 -0.39672118 -0.5764149 -0.18149827
0000e0 15 8b 10 be 5b cf 07 3d ee 53 33 3c eb 1b cb be
       -0.14115556 0.033156734 0.010945303 -0.39669737
0000f0 f5 3f d5 be cb 3e 9e be 74 f7 75 3d 6d e3 76 3d
       -0.41650358 -0.30907282 0.060050443 0.060275484
000100 7a 41 d7 be 2a a3 8d ba ce fc 19 3e 60 34 4f 3d
       -0.42042142 -0.0010806073 0.15037844 0.050587058
000110 15 b8 89 be 13 6b 47 bd a2 f6 27 3e 33 99 d3 3c
       -0.26898256 -0.0486861 0.16402677 0.025829887
000120 30 d0 e2 be 89 49 cc be 51 49 75 3c 2b c1 18 3e
       -0.4429946 -0.39899853 0.014971093 0.14917438
000130 fd 64 e3 3b ef c1 19 3e 08 49 fa bd c1 a2 ce 3d
       0.006939529 0.15015386 -0.12220961 0.100896366
000140 ac 0b cd be 61 0a 1a 3e ea 00 e3 be ec ef 2d bf
       -0.40047967 0.15043022 -0.44336635 -0.67944217
000150 2a 86 4d 3d d2 f1 2a bf 71 f2 bd be 8c bb 2c bf
       0.050176777 -0.6677524 -0.3709903 -0.67473674
000160 a5 97 50 bf 43 0b bb be 20 87 2e 3d 1a a9 1b 3c
       -0.8148139 -0.3653203 0.042609334 0.009500766
000170 af 46 63 be 36 7c e2 be c2 c9 8a 3d af f2 0e 3d
       -0.22194932 -0.4423539 0.067767635 0.03489941
000180 2e 61 9d 3e 0a 40 ac 3e 98 69 81 3e 42 10 2f 3e
       0.30738205 0.33642608 0.25275874 0.17096046
000190 a0 c9 2f 3e 13 fc 77 be 88 20 23 be d7 ed 04 3e
       0.17166758 -0.24217252 -0.15930378 0.12981354
0001a0 32 f9 3f 3d 4d 10 3d bf 1e d7 f7 3d 54 12 63 3e
       0.04686851 -0.73853 0.12101577 0.2217496
0001b0 04 c5 4d 3e 33 e5 b7 be 2f 46 b8 be 04 e3 d5 be
       0.20094687 -0.35917053 -0.35991046 -0.41774762
0001c0 f5 e2 88 3d 4f 58 61 be bd fc 0e bf c0 af 75 be
       0.066839136 -0.22006343 -0.558544 -0.23992825
0001d0 f6 59 a0 bd 0a 37 0a 3e ab fa 8b be a7 d3 b1 be
       -0.07829659 0.13497558 -0.27339682 -0.3473179
0001e0 98 9d 58 be d6 25 4e bd 4c 79 44 3e 81 1e 74 bc
       -0.21153867 -0.050329052 0.19186896 -0.014899851
0001f0 cd 74 ea be 18 bf d4 bd 33 55 5f 3e b3 f9 80 bd
       -0.45792237 -0.10388011 0.21809845 -0.06297626
000200 ae 12 e5 be 78 34 b7 3d 3a b7 a7 3d fc ee c3 bd
       -0.44740814 0.089455545 0.081892446 -0.09567067
000210 fa 70 b7 ba 0a 60 45 be 88 66 0e 3d e5 aa 85 be
       -0.0013995462 -0.19274917 0.03476575 -0.26106945
000220 14 00 6d bd 38 e7 c2 be a5 69 3d 3d 54 95 ac be
       -0.057861403 -0.3806703 0.04624333 -0.33707678
000230 56 97 f2 3d 54 5c 86 bd cb 66 b7 be ae 6f ba 3b
       0.11845271 -0.06560579 -0.35820612 0.005689583
000240 f5 65 e2 be 81 d0 f0 be 90 95 1d 3e 0b 66 61 bd
       -0.44218412 -0.47034076 0.15389085 -0.055028956
000250 d2 24 e1 bc 43 d9 4b bf db 2a 3a be 6b 48 ed be
       -0.027483378 -0.7962839 -0.1818041 -0.46344313
000260 60 51 80 bc 4c 1a 01 bf 5a 1b 15 3c 64 88 db 3d
       -0.015663803 -0.5043075 0.009100759 0.10719374
000270 3e 7c 45 3d 2c d8 05 bf f8 5d c2 be f3 12 dc 3c
       0.04821419 -0.5228298 -0.37962317 0.026864504
000280 d5 ec 1b 3e 18 35 14 3e 6b 0f 8b be 91 2a 3c 3e
       0.15227063 0.14473379 -0.271602 0.18375613
000290 66 2b 6b be 63 78 40 be 14 ad 50 be 3c 29 d8 3e
       -0.22965774 -0.18795924 -0.20378524 0.4221896
0002a0 6c 62 9d 3d 63 3d 0f be bd 59 87 be 1f d6 aa bd
       0.07684788 -0.13988261 -0.26435652 -0.083416216
0002b0 ec 69 23 bd e7 32 c5 3d b3 96 45 3e fc e4 a6 bd
       -0.039895937 0.096288495 0.19295768 -0.08149144
0002c0 5e d7 5f bd f4 7e 78 bb f0 6c 40 3f 9f cd 10 3e
       -0.05464875 -0.0037917467 0.75166225 0.14140938
0002d0 0f 62 b3 3d ee 41 0e be 40 da cf 3d 0d 6b ae be
       0.087589376 -0.13892338 0.1014905 -0.34066048
0002e0 04 ac a1 3d 31 a1 85 be 2d 20 dd 3b 2c a1 eb be
       0.078941375 -0.26099542 0.0067482204 -0.46021402
0002f0 0e fe 99 be 01 06 fb bc 85 f0 0e 3e b2 c5 ff be
       -0.3007664 -0.030642511 0.13958938 -0.49955517
000300 bd 6e 5a 3e 71 91 ad 3a 30 13 bf 3d 0a d0 31 3f
       0.21331306 0.0013242197 0.093298316 0.6945807
000310 aa 13 14 bd 28 ec 83 bd 85 6a c6 3c 56 26 d3 be
       -0.036151566 -0.064415276 0.024220714 -0.41240185
000320 f0 74 e8 bd 31 5a 3f 3e 3e c2 31 bd 6c bb ca bc
       -0.11350429 0.18686749 -0.043398134 -0.024747573
000330 3c f3 f7 be 77 64 8a be fd 51 a6 3d 27 a1 ae be
       -0.4842776 -0.27029774 0.08121107 -0.34107324
000340 c9 21 cd be 65 5d 02 bd 27 fd 0e 3e 7b ce 1f 3e
       -0.4006484 -0.03182735 0.13963757 0.1560611
000350 8e b7 d3 3d da 17 af 3d cb d6 a7 3e 6c 41 f9 3d
       0.10337745 0.08549471 0.32781062 0.12170681
000360 55 0e 6f 3e 61 2d 45 3d 74 69 4f 3e 39 71 86 bd
       0.23345311 0.04813898 0.20255071 -0.06564564
000370 22 ed 39 3e 9e 1e b6 bd 60 e2 d7 bd d3 ac 55 bb
       0.18156865 -0.088925585 -0.105412245 -0.0032604232
000380 23 be ae be ef 1c 5b 3b 9f 16 a0 be ee 76 b3 bd
       -0.34129438 0.0033433994 -0.3126726 -0.087629184
000390 02 71 7c bd 53 db fd 3d 39 77 68 3e b0 38 1a 3d
       -0.06163121 0.123953484 0.2270173 0.037651718
0003a0 cf cb 0c bd a8 70 04 be 71 48 47 be 90 55 d3 bd
       -0.034374055 -0.129336 -0.19461228 -0.10319054
0003b0 b2 5e d6 be 6e 67 01 3f 1e 05 00 3e e9 ed 4e 3e
       -0.41869122 0.50548446 0.12501952 0.20207943
0003c0 80 13 a1 bc 1b 42 a7 be a9 8a 78 3e 8e 00 20 3f
       -0.019662619 -0.32667622 0.24271645 0.62500846
0003d0 4c 4c fa 3d 3d 8d c4 3c d3 89 9d bd 71 96 d7 3e
       0.12221584 0.023993129 -0.076923035 0.42106965
0003e0 23 09 8d 3e ab b8 db bd 01 83 13 3e 41 0b d6 3d
       0.27546033 -0.10728582 0.14405443 0.10451365
0003f0 7a 92 16 bf db 33 52 3d cd 85 2f 3d e2 67 7d bd
       -0.58817255 0.051318984 0.04285221 -0.06186665

fc2.bias f4 [10]
000000 2a 5d 14 be 4c f3 25 be cd 07 17 bc de 4f 22 be
       -0.14488664 -0.16206092 -0.009218168 -0.1585078
000010 f3 a9 03 3e 14 cd 46 3d 1f 5f e6 3b 83 3c 41 be
       0.12857799 0.04853542 0.0070303823 -0.1887074
000020 fd ae b4 3e a2 5c 00 3c
       0.35289755 0.007834585
